…
To enable them in other operations, rebuild TensorFlow with the appropriate compiler flags.
combine two cnn baseline + rotate!
Model: "model"
__________________________________________________________________________________________________
 Layer (type)                   Output Shape         Param #     Connected to                     
==================================================================================================
 input_1 (InputLayer)           [(None, 96, 96, 3)]  0           []                               
                                                                                                  
 sequential (Sequential)        (None, 96, 96, 3)    0           ['input_1[0][0]']                
                                                                                                  
 conv2d (Conv2D)                (None, 94, 94, 16)   448         ['input_1[0][0]']                
                                                                                                  
 conv2d_6 (Conv2D)              (None, 94, 94, 16)   448         ['sequential[0][0]']             
                                                                                                  
 conv2d_1 (Conv2D)              (None, 92, 92, 16)   2320        ['conv2d[0][0]']                 
                                                                                                  
 conv2d_7 (Conv2D)              (None, 92, 92, 16)   2320        ['conv2d_6[0][0]']               
                                                                                                  
 max_pooling2d (MaxPooling2D)   (None, 46, 46, 16)   0           ['conv2d_1[0][0]']               
                                                                                                  
 max_pooling2d_3 (MaxPooling2D)  (None, 46, 46, 16)  0           ['conv2d_7[0][0]']               
                                                                                                  
 conv2d_2 (Conv2D)              (None, 44, 44, 32)   4640        ['max_pooling2d[0][0]']          
                                                                                                  
 conv2d_8 (Conv2D)              (None, 44, 44, 32)   4640        ['max_pooling2d_3[0][0]']        
                                                                                                  
 conv2d_3 (Conv2D)              (None, 42, 42, 32)   9248        ['conv2d_2[0][0]']               
                                                                                                  
 conv2d_9 (Conv2D)              (None, 42, 42, 32)   9248        ['conv2d_8[0][0]']               
                                                                                                  
 max_pooling2d_1 (MaxPooling2D)  (None, 21, 21, 32)  0           ['conv2d_3[0][0]']               
                                                                                                  
 max_pooling2d_4 (MaxPooling2D)  (None, 21, 21, 32)  0           ['conv2d_9[0][0]']               
                                                                                                  
 conv2d_4 (Conv2D)              (None, 19, 19, 64)   18496       ['max_pooling2d_1[0][0]']        
                                                                                                  
 conv2d_10 (Conv2D)             (None, 19, 19, 64)   18496       ['max_pooling2d_4[0][0]']        
                                                                                                  
 conv2d_5 (Conv2D)              (None, 17, 17, 64)   36928       ['conv2d_4[0][0]']               
                                                                                                  
 conv2d_11 (Conv2D)             (None, 17, 17, 64)   36928       ['conv2d_10[0][0]']              
                                                                                                  
 max_pooling2d_2 (MaxPooling2D)  (None, 8, 8, 64)    0           ['conv2d_5[0][0]']               
                                                                                                  
 max_pooling2d_5 (MaxPooling2D)  (None, 8, 8, 64)    0           ['conv2d_11[0][0]']              
                                                                                                  
 flatten (Flatten)              (None, 4096)         0           ['max_pooling2d_2[0][0]']        
                                                                                                  
 flatten_1 (Flatten)            (None, 4096)         0           ['max_pooling2d_5[0][0]']        
                                                                                                  
 dense (Dense)                  (None, 256)          1048832     ['flatten[0][0]']                
                                                                                                  
 dense_2 (Dense)                (None, 256)          1048832     ['flatten_1[0][0]']              
                                                                                                  
 dropout (Dropout)              (None, 256)          0           ['dense[0][0]']                  
                                                                                                  
 dropout_2 (Dropout)            (None, 256)          0           ['dense_2[0][0]']                
                                                                                                  
 dense_1 (Dense)                (None, 128)          32896       ['dropout[0][0]']                
                                                                                                  
 dense_3 (Dense)                (None, 128)          32896       ['dropout_2[0][0]']              
                                                                                                  
 dropout_1 (Dropout)            (None, 128)          0           ['dense_1[0][0]']                
                                                                                                  
 dropout_3 (Dropout)            (None, 128)          0           ['dense_3[0][0]']                
                                                                                                  
 concatenate (Concatenate)      (None, 256)          0           ['dropout_1[0][0]',              
                                                                  'dropout_3[0][0]']              
                                                                                                  
 dense_4 (Dense)                (None, 2)            514         ['concatenate[0][0]']            
                                                                                                  
==================================================================================================
Total params: 2,308,130
Trainable params: 2,308,130
Non-trainable params: 0
__________________________________________________________________________________________________
…
