…
2021-11-29 01:49:08.734371: I tensorflow/core/platform/cpu_feature_guard.cc:151] This TensorFlow binary is optimized with oneAPI Deep Neural Network Library (oneDNN) to use the following CPU instructions in performance-critical operations:  AVX2 AVX512F FMA
To enable them in other operations, rebuild TensorFlow with the appropriate compiler flags.
Model: "model"
_________________________________________________________________
 Layer (type)                Output Shape              Param #   
=================================================================
 input_1 (InputLayer)        [(None, 96, 96, 3)]       0         
                                                                 
 conv2d (Conv2D)             (None, 94, 94, 16)        448       
                                                                 
 conv2d_1 (Conv2D)           (None, 92, 92, 16)        2320      
                                                                 
 max_pooling2d (MaxPooling2D  (None, 46, 46, 16)       0         
 )                                                               
                                                                 
 conv2d_2 (Conv2D)           (None, 44, 44, 32)        4640      
                                                                 
 conv2d_3 (Conv2D)           (None, 42, 42, 32)        9248      
                                                                 
 max_pooling2d_1 (MaxPooling  (None, 21, 21, 32)       0         
 2D)                                                             
                                                                 
 conv2d_4 (Conv2D)           (None, 19, 19, 64)        18496     
                                                                 
 conv2d_5 (Conv2D)           (None, 17, 17, 64)        36928     
                                                                 
 max_pooling2d_2 (MaxPooling  (None, 8, 8, 64)         0         
 2D)                                                             
                                                                 
 flatten (Flatten)           (None, 4096)              0         
                                                                 
 dense (Dense)               (None, 256)               1048832   
                                                                 
 dropout (Dropout)           (None, 256)               0         
                                                                 
 dense_1 (Dense)             (None, 128)               32896     
                                                                 
 dropout_1 (Dropout)         (None, 128)               0         
                                                                 
 dense_2 (Dense)             (None, 2)                 258       
                                                                 
=================================================================
Total params: 1,154,066
Trainable params: 1,154,066
Non-trainable params: 0
_________________________________________________________________
Epoch 1/10
2048/2048 - 364s - loss: 0.4727 - accuracy: 0.7778 - val_loss: 0.4420 - val_accuracy: 0.7748 - 364s/epoch - 178ms/step
…
